siren_crnn.pt (torch, 913909 bytes, 14 tensors)

cnn.0.weight f4 [16, 1, 3, 3]
00000000: a867 28be 0f98 5cbd 7831 06bc 346b b8be
00000010: 7377 6f3e 6136 403e c5e4 45be b3e4 8dbe
00000020: 8939 4c3e 22ca b8be 8cb1 0c3d 7553 6a3d
00000030: 50b6 2cbe a1fd 2d3d 2bef 98be b9ff acbe
00000040: 0494 f53c bcd8 4bbe 37d5 ba3e 69c8 6abe
00000050: 1fe4 f53d a6be c33e 0d27 8b3e 7a5e 2abe
00000060: c438 e13d 1eaf b03e 3160 b03e 3b3e a1be
00000070: b43e 723e 7bab 73be 2e48 c53d b762 abbe
00000080: 3218 91bd 4595 61bd a5bb 51bd 9175 f6bd
00000090: 5a65 a43e dbad 073d 2dd8 15be 4aac 403e
000000a0: d629 c83e c709 c53e b461 893e 19ab 4e3e
000000b0: c62d 9f3e a26c 31be e4d3 7dbe 9b63 b7bb
000000c0: d780 3dbd 9d0b 92be 493d ed3d 8e9d f5bb
000000d0: d831 eb3d a432 acbe ab9a 68bd dbd1 96be
000000e0: b6bf 963d 1415 723e 1fba 9fbe 1130 95be
000000f0: 929c 6d3e f714 a3be 51eb 71bd 0332 0fbd
00000100: 072a f43d f610 1e3d 9a72 a03d 5020 02bd
00000110: 7ad2 bf3e a1ec 90bd bb38 0b3e 4582 42bd
00000120: b6c0 b03d 1af0 efbb 425e 5f3d 1dc1 133e
00000130: a46b a93e e9d0 3d3d ecea 5dbe 01b5 86be
00000140: cf72 84be 825e 09be 6354 09be ddec ed3d
00000150: 8134 a33e 21b3 8cbd f33a 03be ca9d 583d
00000160: 4354 3c3e bed7 823e 4c09 5d3e 082b 3b3e
00000170: 9c80 273e 68c2 253e a9cc 26be 1fd8 033e
00000180: 82ae 32be 6d4f 863d 12fe bb3e c359 b9bd
00000190: aec6 31be 5cce 783e c8a3 d6bd ddc2 05bd
000001a0: 1b58 04be 02e5 a63e f6d2 55be 2bb4 963d
000001b0: 17c3 05bd c773 b6be 61e3 f63c 1d33 14be
000001c0: e0e9 0d3d cca7 50be f6c9 77be 771b 133e
000001d0: 5b9a 85be e9a2 27be a01e 35be 084e 2cbe
000001e0: 6cf9 68bd d3c0 903e 976a 48be f34e 2abe
000001f0: 657d 683e 2ea3 b83e c6fd acbe 2763 403d
00000200: 6709 55be b254 c63e 37b6 2f3e 8668 6d3e
00000210: 21e6 413d 98c0 f4bd bdc4 cd3e d6df a83e
00000220: bd59 17be 073c 683e d0a6 85be f705 a1be
00000230: fa66 49be f211 a23d b451 73be 5a6a 30be
-0.16445792 -0.053855952 -0.008190505 -0.3601929 0.2338541 0.18770744 -0.1932555 -0.27713546
0.19943823 -0.36091715 0.03434901 0.057208497 -0.16866422 0.042478207 -0.2986997 -0.3378885
0.029977806 -0.19906896 0.36490795 -0.22928013 0.12006401 0.3823139 0.2717823 -0.16637602
0.10997155 0.34508604 0.34448388 -0.3149279 0.23656732 -0.23795883 0.09632908 -0.3347375
-0.07084693 -0.055073995 -0.051204342 -0.12034143 0.32108575 0.033124786 -0.14633246 0.18815723
0.39094418 0.38484022 0.26832354 0.20182456 0.3108961 -0.17326596 -0.24787861 -0.0055965907
-0.04626545 -0.28524485 0.11583955 -0.0074955886 0.11484116 -0.33632386 -0.056788128 -0.29456982
0.07360785 0.23640853 -0.31196687 -0.29138234 0.23204258 -0.31851932 -0.059062306 -0.034959804
0.119220786 0.038590394 0.078343585 -0.031769097 0.37465268 -0.070763834 0.1359586 -0.047487516
0.08630507 -0.0073223235 0.05453325 0.14429136 0.33089936 0.04634181 -0.21671647 -0.2630997
-0.25868842 -0.13414958 -0.13411097 0.11617444 0.31875995 -0.068701036 -0.12815456 0.052884854
0.18391518 0.25555223 0.21585578 0.18278134 0.16357654 0.16187441 -0.16289009 0.12875412
-0.17449382 0.06558118 0.36717278 -0.09050324 -0.17360947 0.2429747 -0.104804575 -0.03265654
-0.12924235 0.32596594 -0.20881256 0.07358583 -0.032656755 -0.35635206 0.03013772 -0.14472623
0.03464687 -0.2037651 -0.24198136 0.14365946 -0.26094326 -0.16370739 -0.17687464 -0.16826642
-0.056878492 0.28272113 -0.19571911 -0.16631679 0.22704084 0.36061996 -0.33787364 0.04696956
-0.20804368 0.38736492 0.17159353 0.23184404 0.04733861 -0.11950797 0.40189162 0.32983273
-0.14780326 0.22679149 -0.2610383 -0.31449863 -0.19668189 0.07913579 -0.23761636 -0.1722807

cnn.0.bias f4 [16]
00000000: e601 363c 35b7 9f3e 153c c83c 5431 00be
00000010: 8ca4 23be 13e2 80be 4413 3fbe 6554 a23e
00000020: 07c7 423e d541 cfbd 0886 4cbe 1dc1 f53c
00000030: fce7 943e 81fd 50bb 1677 19be bf64 62be
0.011108851 0.31194463 0.024442712 -0.12518817 -0.15980738 -0.2517248 -0.18659693 0.31705013
0.19021235 -0.10119978 -0.19973004 0.02999931 0.2908324 -0.0031889381 -0.14986834 -0.22108744

cnn.3.weight f4 [32, 16, 3, 3]
00000000: f963 3cbd 741c 5cbc 0fe0 8a3d 8fef d73c
00000010: 9d89 1b3d 08a4 673d d480 cabc 39b0 19bd
00000020: c9f0 27bd a474 cd3a 7d5c 55bd 5438 77bd
00000030: e5e8 8b3c 4c8f e6bd ad43 d5bd d712 c23c
00000040: 000a 2abd 5cfc 7ebd 26b4 983c 99ca ff3c
00000050: a764 d03d 9736 043d 77e1 a93d a589 c53d
00000060: b938 613c 50bc 623d 0f86 313d 94c3 debc
00000070: 78e6 16bc 2965 ee3b 4288 103d 0b34 d6bd
00000080: 475b 49bd baab 8dbd 775d 94bd a8d0 eabc
00000090: dedb cbbc 6306 823d 2803 033e 1865 4cbc
000000a0: 9335 df3d 408c f43d 5aa8 df3b 5866 cbbc
000000b0: 5b00 a53d bf16 823d 3cc4 63bb df81 ff3d
000000c0: a508 bb3c 791e 76bd 5216 50bd 2d02 813c
000000d0: 1216 8abd 71f9 7e3d 7eb8 9abd cdef a63c
000000e0: 332d a63c 7e6c 763d 36dd ccbc 675b 32bc
000000f0: 1de4 e03c d166 6ebc 7865 b83d 6b9d 3e3d
00000100: 0937 1bbd a2c4 a23d 1cd6 003d fe0a 883d
00000110: 3356 8c3d 24c2 953d b339 a0bc 3ce7 8c3d
00000120: d494 df3b 9dc2 b2bc 3830 c939 4fa1 4d3d
00000130: 3b95 5ebc 2262 c83d 3b91 f73d 76ba 0a3a
00000140: 77b8 cdbb a451 103d fbd6 4b3c e2d2 793d
00000150: 86d3 0f3c e277 26bd f719 bc3d b784 dfbd
00000160: 87c1 71bd 3535 a3bd e55f d33d 649d 25bd
00000170: 1d6f 9b3d 99ca 923d afd1 af3d 78c8 0a3e
00000180: a354 c33d f921 8abc f325 abbc d66f 1a3c
00000190: d972 593d 12d4 693d a107 1ebd 7f2d 013d
000001a0: 72ee fcbc cfb5 943d 4b3e 33bd d3b4 e2bb
000001b0: 7566 0abd 5042 77bd f998 96bc 4e22 95bd
000001c0: a5f0 90b9 a143 64bd 79ad 81bd 8ba3 973d
000001d0: a651 84bd eeb3 743d 493f 8f3d f802 803d
000001e0: 1f03 b53d 4138 05bd 4bb5 bd3c 56b3 3e3a
000001f0: bdb3 523d 8180 ec3b f794 893d 0fbf 3bbd
00000200: e01c ad3d 0ff3 ee3c a388 fe3d 011d a63d
00000210: 9d7f 19bd 510e bdbd 1b0c 0ebe e8ea 6f3d
00000220: 7e98 1dbd 4bc5 0e3e ed26 8fbd 6787 9b3c
00000230: fd95 393d c8df 033d dfc2 173c 1f30 3c3d
00000240: 8b32 5fbc 550a 083d dc31 7ebc ea71 583c
00000250: 68f8 c93d d3e1 5d3d c240 2fbc 9f0a 4dbd
00000260: cd34 c7bc 52c5 823d 10b4 dc3c f115 ba3d
00000270: f1f9 aa3b 8357 663c 1c41 a8bc 4c2f ffbc
00000280: 45a5 9b3d 376a 083d 0e5d 22bc d938 81bc
00000290: a4f4 bbbd 1998 833c 2487 0c3c c9b3 4fbc
000002a0: 51d8 d5ba 9d86 b5bd 3306 f1bd 4f0e acbb
000002b0: 6ed4 7f3d d771 1a3d 8a12 a53b 554c cb3d
000002c0: 605a 1b3d 7765 343d 956b 703d 0822 f13c
000002d0: 3b61 d0bd ff34 7c3b 656d f63c 52f2 97bd
000002e0: 973b 9ebd 2358 343d 45a5 33bd 15f0 4ebd
000002f0: ce17 c2bd b4ba 0abd d223 a53c 8bbd 283d
00000300: afda fe3d 34fd 963d 630c b0ba 821e 153d
00000310: 037b de3d de72 8e3d 73a6 be3c 7629 27bd
00000320: 11a2 993d b5da f13d 0950 943d facd 5fbc
00000330: f708 e9bc 8cad 403d b94b 423d a448 803d
00000340: 3aed 653d 1c6e 7b3d 7aa8 1ebd 19c9 80bd
00000350: d857 afbd 85a8 9cbd b30d 68bc c434 be3c
00000360: 4594 a53d 4bb0 83bb 60ef b53d 7a27 063d
00000370: bbac fe3c b9d6 9dbd bfbb 5ebd 14f7 5dbd
00000380: df5b a3bd 2c92 d2bc e98c 233d 0d01 b23c
00000390: 503f 3dbd 5bb9 ddbd e9b6 62bd bc8e d73c
000003a0: c007 e0b9 5754 f43c 1afe 52bc d616 d53c
000003b0: 35bb 4c3d 8235 903c 3fa1 95bb 2e88 4b3d
000003c0: d57c c6bc a967 49bd 49dd 2fbb c8f9 9dbc
000003d0: 956e 78bd 1d72 8f3b 8ac9 173d dc20 24bd
000003e0: dc08 3fbd 6ed3 13bd fbbb 77bd e6f1 f63c
000003f0: 27b1 633c 80a6 05bd 69c9 a83d 4119 cebb
-0.04599378 -0.013434518 0.06781017 0.026359348 0.037973035 0.056552917 -0.024719633 -0.037521575
-0.041001115 0.001567502 -0.052090157 -0.060356453 0.017078826 -0.112578005 -0.10413299 0.023690624
-0.041513443 -0.062252387 0.018640589 0.031224536 0.10175448 0.032278623 0.08294957 0.09645394
0.013746434 0.05535537 0.04334074 -0.027192868 -0.0092102215 0.007275243 0.035286196 -0.10459145
-0.049159314 -0.0691752 -0.072443895 -0.028663948 -0.024885114 0.063488744 0.12794173 -0.0124752745
0.1089889 0.11940813 0.006825489 -0.024829075 0.080567084 0.06351995 -0.0034754416 0.12475943
0.02283127 -0.060087655 -0.050802536 0.015748108 -0.06742491 0.062249605 -0.0755472 0.020378018
0.020285225 0.06016206 -0.025007825 -0.01088605 0.027452523 -0.0145508805 0.09003729 0.046536844
-0.037894282 0.07947661 0.03145419 0.066427216 0.06852379 0.0731242 -0.019558763 0.06880042
0.0068231616 -0.021821314 0.00038373633 0.050202664 -0.013585384 0.09784342 0.120882474 0.0005292067
-0.0062780934 0.03523411 0.012441392 0.06099213 0.008778458 -0.040641673 0.0918464 -0.10913985
-0.059022453 -0.07969133 0.10321025 -0.040433303 0.075895526 0.07167549 0.08584916 0.13553035
0.095376275 -0.016861903 -0.020892119 0.009426078 0.053088043 0.05708701 -0.038581494 0.03153753
-0.030875418 0.0726124 -0.04376058 -0.0069185286 -0.033789117 -0.060365975 -0.01838349 -0.07281934
-0.00027645114 -0.05572856 -0.063319154 0.0740424 -0.06460886 0.059741907 0.069944926 0.06250566
0.08838486 -0.03252435 0.023157736 0.0007274648 0.051440943 0.0072174673 0.06717866 -0.045836505
0.08452773 0.029168634 0.12428405 0.08111001 -0.037475217 -0.09231246 -0.13871805 0.058573633
-0.038475506 0.13942449 -0.069898464 0.018985463 0.045309056 0.032195836 0.0092627695 0.04594433
-0.01362289 0.03321298 -0.015514817 0.013210753 0.09861833 0.05417044 -0.010696592 -0.050058957
-0.02431717 0.06385292 0.02694133 0.09086216 0.0052177836 0.01405895 -0.02053886 -0.031150483
0.07599882 0.03330442 -0.009909881 -0.015774177 -0.09177521 0.016063737 0.008577142 -0.012677141
-0.0016315078 -0.08863566 -0.117687605 -0.005250729 0.062458448 0.037706222 0.0050376104 0.099266686
0.037927985 0.044042077 0.05869635 0.029435173 -0.10174795 0.0038483737 0.03008146 -0.07419266
-0.077262096 0.044029366 -0.043858785 -0.05052193 -0.09477197 -0.03386946 0.020158682 0.041196387
0.12444054 0.073725134 -0.0013431426 0.036406048 0.108633064 0.06955503 0.023272729 -0.040811025
0.07501615 0.11809293 0.07241828 -0.0136599485 -0.028446658 0.047040507 0.047435496 0.06263855
0.05613444 0.061384305 -0.03873489 -0.06288356 -0.08561677 -0.0764933 -0.014163422 0.02321852
0.08084921 -0.0040188185 0.08883548 0.03275249 0.031088224 -0.07706971 -0.054378267 -0.05419071
-0.079765074 -0.025704466 0.039929304 0.021729017 -0.046202958 -0.108263694 -0.055350218 0.026313178
-0.00042730384 0.029825373 -0.012877965 0.026011866 0.049983222 0.01760364 -0.004566341 0.049690418
-0.024229446 -0.049171124 -0.0026834777 -0.019284144 -0.060652334 0.004377617 0.037057437 -0.0400704
-0.04663931 -0.036090307 -0.060482007 0.030144643 0.013897217 -0.03262949 0.08241541 -0.0062896316

cnn.3.bias f4 [32]
00000000: 8b0f 853d 8e66 65bd c611 773d 78ab 643c
00000010: 6965 64bd 4921 c6bb 11ed 1abb 130e 9dbd
00000020: ade7 a4bd 65cd 29bd 33a4 26bd 52f2 62bd
00000030: 5b7c 5b3d bd73 5e3d 70c9 1e3d 2511 123d
00000040: 14eb 93bc 81aa 883b b34c 4b3d 2c23 36bd
00000050: 868b 7c3d cc5b b7bb 78b1 43bc 819f 713d
00000060: c5fb 503d 1c20 50bc d0d3 253d 0577 783a
00000070: 52bf d53d f04c 13bd c920 b33b 4ebb b9bd
0.06497105 -0.056006007 0.060319684 0.013956897 -0.055760775 -0.0060464484 -0.0023639838 -0.076687
-0.08052001 -0.041455645 -0.040683936 -0.055406876 0.05358539 0.054309595 0.038766325 0.03566088
-0.01805643 0.0041707163 0.049633693 -0.044467136 0.061656497 -0.00559566 -0.011944167 0.058990005
0.051021356 -0.012702968 0.040485203 0.00094781845 0.10436882 -0.035962045 0.005466555 -0.09068929

rnn.weight_ih_l0 f4 [192, 512]
00000000: 2da6 253d a297 80bd 125c a63d 3dfa e23b
00000010: ed01 073e 923e 783d 5316 b8bd bf61 e83d
00000020: eac1 ed3c dab5 18bc a52c 063d 7899 123e
00000030: 44a7 8bbd f059 6abc e6a8 6cbd 4e8a 9a3c
00000040: e990 3c3d 9164 aa3d f5aa 5f3d b51f 3abd
00000050: c431 963d ec28 a33d 112d a0bd 36b4 123e
00000060: c033 173e 43c9 593d 80bd 8abd 3079 063d
00000070: f46b 0f3d 1f5e e43d 1cc9 9bbd 2da4 64bd
00000080: c2b9 d93d 7273 ca3d 6213 37bd 70ef f8bd
00000090: e3b9 b93d 7936 c63d 618c 28bd 8749 bdbd
000000a0: 229f 43bb 0550 cfbc 6a62 df3d f254 993d
000000b0: 0142 fb3d 743b 0e3e ad35 ccbd 04ec a4bc
000000c0: fd46 ffbd 642b 49bc bce4 dfbd 9643 0d3e
000000d0: 79c5 8d3d 3be6 b73c e7e9 6c3d e528 173e
000000e0: 59fd 35bc 0c97 203e 2570 913d 3b5d fc3d
000000f0: f7ce 38bb c04d e73c 8534 6abd 4d0b 5a3d
00000100: 9e79 b4bb 993b efbc 5b4f cfbd 08e5 073d
00000110: 8ff4 eebc 431b b73d b4f9 813c 37c7 4ebd
00000120: f895 b5bd c877 433d 5d4f 123e bbc7 c4bc
00000130: 2189 983d 0d18 c53c e92b 453d 37e5 123d
00000140: 9133 213d d42e 1c3e 251b 573d 6e34 e5bd
00000150: 274a 723d 0bd5 833d af8a bb3d ac0f d13d
00000160: 4471 f33d 217f 9e3c ccc5 043e 6ec0 2dbd
00000170: b393 5d3d 28e3 f63d 4012 b7bd add7 b83d
00000180: 756c f3bb 981c 8cbc 557d 54bd 39a4 143e
00000190: 5e2b 6b3b d5ff e9bd e0f4 8c3d 752e ea3d
000001a0: 4460 143d 6fb6 1a3e 6a81 613d d04b 293d
000001b0: e114 8fbc 33b3 c03d fd4c 733d a78c fdbc
000001c0: 81ca 90bc be4b bcbd 969b d93d 58f5 ed3d
000001d0: 090f 60bd 44d6 b33c fe92 70bd a8c6 1b3e
000001e0: b423 acbc 5c25 c53d e181 a33d a392 6b3d
000001f0: a056 223e 9672 ae3c 9dc4 ea3d 75b7 103e
00000200: a988 23bd c793 b6bc b074 d5bd c86e 0fbd
00000210: 8d49 4cbd c201 473c 9c7d 9f3d dcd1 7fbd
00000220: 24d0 953d 58b8 aa3c 0216 8bbd cf9f 983d
00000230: e1d3 303d d5c3 a03c 0d5f a13d 426d b63b
00000240: 84e5 9ebd 1ac2 0d3e a1fe a03c 14af 24bd
00000250: eba5 4b3d 2110 1d3e 8199 0a3d fb04 223e
00000260: 621a 09bd 4d43 f53d 351a 293d 798c e83d
00000270: 130f 67bb 2720 023d 7658 603d e947 ff3d
00000280: b6b3 9bbd e4a6 40bd 753c b33c 648f a93b
00000290: eb31 9a3d c82b bb3d 9c74 173e b5f0 4d3d
000002a0: 2976 473c 15e0 c4bd 40eb 5c3d 2907 08bd
000002b0: 54a1 cf3d 6460 153e 85db 0a3e a2bc ab3c
000002c0: 4ffa 2fbd 1ede cb3c 6e25 f03b 9e0b a53d
000002d0: c25d 3c3d 9931 d23d f07a 30bd 0e3d f0bc
000002e0: b877 703d a0b2 cbbd fe6f f7bd de90 fabd
000002f0: 8ed5 d9bd d052 b13c a2bf ffbd 4c0f 233d
00000300: 4a15 093e d3f1 093d e5f4 7f3b 3b1e be3d
00000310: 26ee 61bd e687 a03d 4952 9cbc 7006 adbd
00000320: de2a 093e 6447 f7bc 75bc c23d a355 823d
00000330: 36f2 683d ad82 6ebd f370 0a3e 0b83 7d3d
00000340: 0fd8 fc3c 433b 023e 4063 e8bb da6f 6ebd
00000350: a39a 023e fab3 63bd 5832 ed3b 0023 c23d
00000360: 19e2 39bd 604e 5a3d deba 153e f995 21bd
00000370: 5ce6 833d c92f c9bc f681 e03d cc2a 94bb
00000380: 48d3 38bd bc54 903d 9a48 d0bc 972a 9dbd
00000390: 1a6c b83d 40c8 a83d 0bfb b7bc 7cff 823d
000003a0: 49a9 213e 4902 873d f020 babd 3c19 e13d
000003b0: 4d3b 5e3d d282 8f3d ae4f 9c3c 2f99 aebc
000003c0: 6b61 403d 5898 90bd 7d19 bc3c 9a16 633d
000003d0: 6909 ed3d b750 96bd 2194 dabc a4e5 193e
000003e0: a14e 5a3d 6a0c 833d e5c9 d93d 458c a33b
000003f0: ad9f 9d3d 4320 dc3b 1f72 463c 4111 063e
0.04044168 -0.06278922 0.0812303 0.0069268034 0.13184328 0.060606547 -0.08988633 0.113467686
0.02902313 -0.009320701 0.03275742 0.14316356 -0.06819013 -0.014303669 -0.05777826 0.018864777
0.046036635 0.08319963 0.054606397 -0.045440394 0.07333711 0.079667896 -0.07821096 0.14326558
0.14765835 0.053170454 -0.067744255 0.032830417 0.03501506 0.11150765 -0.07606718 -0.055820633
0.106311336 0.09885301 -0.04469622 -0.12155044 0.09068658 0.096783586 -0.0411495 -0.0924254
-0.002984949 -0.025306711 0.10907443 0.07486905 0.122684486 0.13889867 -0.09971175 -0.020132072
-0.12464712 -0.012278412 -0.109322995 0.13795313 0.069224305 0.02244865 0.057840254 0.14761694
-0.011107766 0.1568262 0.07101468 0.1232247 -0.0028199533 0.028235316 -0.057178993 0.053233434
-0.005507662 -0.029203223 -0.10122558 0.033177406 -0.029169349 0.08940747 0.015866138 -0.050482955
-0.08866495 0.047721654 0.14288087 -0.02402102 0.0744803 0.02405932 0.04813758 0.035863128
0.03935582 0.15252239 0.05251612 -0.11191641 0.05915275 0.06437119 0.09157311 0.10208067
0.11886838 0.01934773 0.12966079 -0.042419843 0.054095935 0.12055045 -0.08939028 0.09025512
-0.0074287006 -0.017103478 -0.05187734 0.14515771 0.0035884003 -0.11425749 0.06882644 0.11434642
0.03622462 0.15108655 0.05505506 0.041332066 -0.01746601 0.094091795 0.059399594 -0.030950857
-0.017674686 -0.09194134 0.10625379 0.11619061 -0.05470184 0.021952756 -0.058733933 0.152125
-0.021013118 0.09626266 0.07983757 0.05751289 0.15853357 0.021294873 0.11463282 0.14132483
-0.03992525 -0.022287263 -0.10422647 -0.03501776 -0.04987483 0.012146415 0.0778763 -0.062455997
0.0731509 0.020839855 -0.06791307 0.07452356 0.043170813 0.01962463 0.078794576 0.0055672238
-0.077586204 0.13843575 0.019652667 -0.04020603 0.04971878 0.15338184 0.0338378 0.15822212
-0.033472426 0.11975727 0.04128476 0.11354918 -0.0035256788 0.031768944 0.054771863 0.12464888
-0.076026365 -0.04703416 0.021879414 0.005174564 0.07529052 0.0913921 0.14790577 0.050278384
0.012174168 -0.09613053 0.05393529 -0.033209953 0.10138193 0.14587551 0.13560303 0.02096397
-0.042963322 0.024886187 0.0073286807 0.080588564 0.045987852 0.10263366 -0.043085992 -0.029325988
0.058707923 -0.099461794 -0.12081908 -0.122346625 -0.106364354 0.021645933 -0.12487723 0.03980951
0.13387027 0.033677887 0.003905588 0.0928311 -0.055158757 0.078384206 -0.019082205 -0.084484935
0.13395259 -0.030185409 0.095086016 0.0636399 0.056871615 -0.05823009 0.13519649 0.06189255
0.030864744 0.12717919 -0.0070919096 -0.05821214 0.12754302 -0.05559156 0.0072386675 0.09479332
-0.04538164 0.0532974 0.14622065 -0.039449666 0.06440422 -0.024558919 0.10962288 -0.0045217033
-0.04512337 0.07047412 -0.025425244 -0.07674139 0.09004994 0.0824132 -0.022458574 0.06396386
0.15787233 0.06592233 -0.090883136 0.10991141 0.054255772 0.07007374 0.019080963 -0.021313278
0.046967905 -0.07060307 0.022961373 0.055441476 0.115740605 -0.07339614 -0.026681961 0.15029007
0.053297643 0.06398852 0.106342115 0.0049910867 0.07696471 0.006717713 0.0121121695 0.1309252

rnn.weight_hh_l0 f4 [192, 64]
00000000: 3116 6a39 28dd 20bd fdca 09bd 0afc a53c
00000010: 9de1 073e 70ee 8a3c fbf7 c33d 54da cf3d
00000020: 79a6 403d 8b3f 2a3d 737c 253d a2b8 323c
00000030: db27 d6bc 9f39 49bd 40fe 95bd c9e7 103d
00000040: b9f1 17bd cb07 85bc 6ce0 0a3b 2f08 013e
00000050: c884 03be 2d0a fbbc d5f0 9e3d ef41 9dbd
00000060: 8883 b2bd b852 d83c a4b6 64bd 7430 9e3d
00000070: c456 fe3c a2e8 20bd 846f 7cbd 5b08 2f3d
00000080: 9214 9a3d cc56 f1bd 26f2 003e 3181 fdbc
00000090: 1eff 273d 0b29 183e 30c4 fc3c ab9d 153d
000000a0: ce8c 43bc e96a d23d 312d fbbc b77a 9abd
000000b0: ad12 dcbc 5a30 613d 3198 653d ee24 08bd
000000c0: ea4b 5c3d 956b 083e 8fbb 49bd 4e68 3fbd
000000d0: 8ca7 f63d 4077 ccbb 0d59 0a3c 4c26 6abd
000000e0: b262 1e3e e761 aebc 2871 a53d 28fc bb3c
000000f0: c41b eb3c 0605 4b3d cb3a 053e 6dd8 7bbd
00000100: c544 2dbe 36d0 8bbd 11ec b6bd 72f2 13be
00000110: b137 f1bd 9b1c f53c 64a9 da3d bd64 af3c
00000120: 8058 f93c 1163 fdbc a7a2 ef3d 10c6 bfbd
00000130: 3a50 fcbc 2121 b93d 43fc e2bd 258a 0ebc
00000140: c1d0 ebbd 3c1b 9cbd e1f1 19bd 0cdb 93bd
00000150: 9671 39bd bf4e aa3d 068b 30bd 2a38 16be
00000160: f210 3cbd f8bf 32bd 930f 0f3d 8ab4 97bd
00000170: e799 d3bd 5b75 58be 2756 98bc cead ca3d
00000180: 7737 033d 6c52 a93b e4a6 863d fb26 c93c
00000190: 2c40 693d 22a8 b73c 86dc d3bc 43d7 ce3c
000001a0: a82c 063d 85f7 9fbd 720e 51bd 2f59 4cbd
000001b0: 64bd 83bd bbf3 183e 3a3f 03bd bfce 993d
000001c0: 0aad 013e 7ea0 9fbd fd5b 883c a96a 593e
000001d0: b4a9 d9bd 365b 42be d2f8 1e3e 9d88 40be
000001e0: c947 85bd c83f 263c aaf9 393d 1ae0 5abe
000001f0: 3a72 22bd 7107 c3bd 658a 97bd d727 383e
00000200: 8aba a4bd 9e57 2d3d 71e8 0b3d a955 22bc
00000210: 7d8a b23d d57e 8e3b 4b96 63bd 74a7 40bd
00000220: 16e4 543c ea15 d1bd 82f6 9cbd 06f6 d4bc
00000230: 68d1 8fbd 9822 183e 979e bc3c 2e23 d0bc
00000240: 0c6a 2f3d 6e5e 40bd 119f ff3d 0cde 9abd
00000250: f501 a1bd 7826 773d c95c 00bd a7ac 2c3d
00000260: 2969 1abe 5a0e aebc a4aa 17be bf63 42bd
00000270: 9026 02be c5ad 7c3d f5a1 8f3c 8d24 3bb9
00000280: e089 b13c 12f3 053d f394 03be 8f0f 8fbd
00000290: 8700 cabd 9881 84bd aaed 01be 44ce f6bc
000002a0: 83d6 5dbd eaff fcbc 37fa 93bd 86aa 5abd
000002b0: f2e5 423d 29ba 133d 5090 f1bd d384 1f3c
000002c0: ba22 de3d 62a3 36bd fdd5 d83d a026 53bd
000002d0: 97bd d13b 6a2f 633d dc1e 153d c08c 7cbc
000002e0: 7332 0b3e 934a 31bc 1d07 14bd 1d86 35bd
000002f0: 38d6 25bd 676b f23d 4f44 7fbd d4c9 0fbc
00000300: fe25 ad3c 54e6 07be 9ff3 49bd 3026 b1bd
00000310: 0aae 963d a327 97bd 6734 bb3d ea52 e6bc
00000320: b76b cdbd 2c12 ddbd 5d97 90bb 39fe b0bd
00000330: c1f9 a83c 51fc c6bc 7fc2 96bd 5b11 8a3d
00000340: 6b9e 443d 1940 ff3d 78ad 2c3d 8ac5 abbc
00000350: 0140 35bd 17db 0dbe bb2c 863c b524 ecbd
00000360: 2c67 4e3d 9d1a 18bc 3a0a 9dbc 3d30 96bd
00000370: 8bb6 723d 69e6 02bd d454 d13b f539 d43c
00000380: 74f4 51bd 659c c93d 9b50 853d 14b0 1c3d
00000390: 1bde d7bb c67e 903d ea37 1dbd ae34 c53d
000003a0: ef03 d8ba c5af a53d 6547 1cbe f5d2 14bd
000003b0: eb1e 07be 0d6d 15bd 3794 913c 540f cfbd
000003c0: dfb8 4f3d 2799 313c 608e 42bc 55fa 723c
000003d0: 16bd 3e3d b19d edbd ceb8 87bc a3f0 00be
000003e0: 52b3 a4bd 7d4b c5bc c3df 89bd 14b3 3dbd
000003f0: 629a a0bd e1b8 66bd 412c 0b3c fbdb 283d
0.00022324246 -0.03927341 -0.03364085 0.020261783 0.13269658 0.016959399 0.09568783 0.10149065
0.04703376 0.041564506 0.040401887 0.010908278 -0.026142051 -0.049127217 -0.07323885 0.035377298
-0.03709576 -0.016239068 0.0021190895 0.12600778 -0.12843621 -0.0306445 0.07760779 -0.076785915
-0.08716494 0.02640663 -0.055838242 0.077240855 0.031047232 -0.039284356 -0.061629787 0.042732578
0.07523455 -0.11784133 0.12592372 -0.030945392 0.041014783 0.14859407 0.030855268 0.036527317
-0.011935426 0.10274298 -0.030661197 -0.07542937 -0.026864374 0.054977752 0.056053344 -0.033238344
0.053783335 0.1332229 -0.049251135 -0.046730332 0.12043676 -0.0062398016 0.008444083 -0.05716543
0.15467337 -0.021286918 0.080782235 0.022947386 0.028699763 0.049565338 0.13010709 -0.061485697
-0.16920765 -0.068268225 -0.08931745 -0.14447954 -0.117782004 0.029920867 0.1067684 0.02141034
0.030437708 -0.030931028 0.11700945 -0.09363949 -0.030799974 0.09039522 -0.11083271 -0.008699928
-0.11514426 -0.07622382 -0.03758419 -0.07219514 -0.04527434 0.08315801 -0.043101333 -0.14669862
-0.045914598 -0.043640107 0.034926962 -0.07407482 -0.10332089 -0.21138518 -0.018595768 0.09896432
0.032035317 0.005167296 0.065748006 0.02455472 0.056945965 0.02241904 -0.02586199 0.02524913
0.03275743 -0.078108825 -0.051039167 -0.04988974 -0.06432608 0.14936726 -0.03204272 0.07510137
0.12663665 -0.07794283 0.016645426 0.21232094 -0.106280714 -0.18980107 0.15524605 -0.18802114
-0.065078326 0.010147043 0.045404114 -0.2137455 -0.039659716 -0.09522904 -0.073994435 0.17983948
-0.08043392 0.042319886 0.03415722 -0.009908118 0.08717821 0.0043486157 -0.055563252 -0.047034696
0.012993833 -0.10209258 -0.07664205 -0.02599622 -0.07022363 0.14856946 0.02302484 -0.0254074
0.042825744 -0.046965055 0.124815114 -0.07561883 -0.078617014 0.06033942 -0.031338487 0.04215684
-0.15079178 -0.021247078 -0.14811188 -0.047458407 -0.12710023 0.061689157 0.017533282 -0.00017847326
0.02167219 0.032702513 -0.12849788 -0.069853894 -0.09863382 -0.064700305 -0.12688318 -0.030127652
-0.054159652 -0.030883748 -0.07225459 -0.05338528 0.047582574 0.036066208 -0.117951035 0.009736258
0.10846467 -0.044589408 0.1058769 -0.051550508 0.0064007747 0.05546514 0.036406383 -0.015414417
0.13593464 -0.010821003 -0.036139596 -0.044317354 -0.040487498 0.118368916 -0.062321004 -0.008776147
0.02113628 -0.13271457 -0.0493046 -0.08649862 0.07357414 -0.07380607 0.09140854 -0.028115708
-0.100303106 -0.10794482 -0.004412575 -0.08642239 0.020626904 -0.024290236 -0.07361316 0.067415915
0.04800264 0.124633975 0.04215762 -0.020968217 -0.044250492 -0.13853107 0.016378751 -0.11530439
0.05039136 -0.009283689 -0.019169915 -0.073334195 0.059256118 -0.031958017 0.006388286 0.025906542
-0.05125852 0.09844283 0.06509515 0.03825386 -0.0065877563 0.0705543 -0.038383402 0.096291885
-0.0016480664 0.08090166 -0.1526161 -0.036333997 -0.13195388 -0.036480952 0.01777087 -0.101103455
0.050713416 0.010839737 -0.011874765 0.014830192 0.046567045 -0.11602343 -0.016567614 -0.12591796
-0.08042015 -0.024083847 -0.06732132 -0.04631336 -0.07841946 -0.056328658 0.008494438 0.041225415

rnn.bias_ih_l0 f4 [192]
00000000: 2119 ae3c 8c3a d3bd 8586 e13d dbe4 bb3d
00000010: 5685 f63d fc32 aebd 5bd1 ddbd 06b8 203c
00000020: 5b07 1dbd 4d67 4fbd dd47 d7bc ca47 c9bd
00000030: 5eba 89bd 5136 dc3c 0375 6d3d e60e c93d
00000040: 2038 3fbd 5760 10bd 599b 263e db0b fc3c
00000050: 71b3 8f3d d695 513d 856e f03d dad3 2fbd
00000060: 7339 95bd aa9f 1fbd 8670 bc3c afde a5bd
00000070: cbe1 2fbd c8bc 1b3d 5ed5 f9bc 1791 283d
00000080: 56f3 0c3d 4dfe 0d3d c369 5fbd 44c3 a83d
00000090: 2d10 5a3c d737 f0bc a698 fa3d aa3f 2f3d
000000a0: fa99 f13d a7a5 923d 5488 c83d c273 83bd
000000b0: 2aeb 99bd 1923 823d 4cec d33d 7f93 b63c
000000c0: 07f7 38bd b75d de3c 04af 183e 0d21 f63c
000000d0: 54be 133b 2a36 a53d 6135 e73d ecce a3bd
000000e0: 9c54 c0bc 0715 d83d 5c96 e63d 2f79 b53c
000000f0: 31df 82bc 0908 8ebd a6b7 cd3d d117 8f3c
00000100: 8fd3 84bd 3ad2 073d 034e 37bd 884c ebbc
00000110: 764e 4abc dc44 b9b9 0806 c7bd 34e3 973d
00000120: 9e26 613c c2de 813c dfa4 a03d 3a1a 98bd
00000130: 103b 993d e866 cebd 6ca7 ae3d 73e4 953d
00000140: 71d1 d1bd 30fd 3f3d 5042 843d b47f 9abd
00000150: e566 d53d b86e 2bbd d23e 933d de63 043e
00000160: 5257 c0bd 6ffc 9cbd d475 66bd db8c aebd
00000170: c9b4 3bbd 1bdc e1bd cbf6 1bbb b701 36bd
00000180: 863d 883d 07fa c33d 3aab 023e 4ba3 0d3d
00000190: 137d 053e 95aa 273c f0ab a2bd 3587 103e
000001a0: 9440 a5bd 6311 553d 0451 9f3d 9e88 abbd
000001b0: 4745 b53d 3417 a1bd 715e 6b3d 7f79 063e
000001c0: 836b 95bc ffb7 80bc 19f7 b9bc 9ca6 debc
000001d0: 6a79 74b9 5dce 113e d9f3 e1bd 38e0 683d
000001e0: 4053 35bd a8c3 c3bd 21c2 d73d 1bed ca3b
000001f0: eee7 bd3d 368f 083e b7a3 0b3e a22f 663d
00000200: 8286 3abd 43b5 bdbb 7dcd 053e e254 663d
00000210: e654 093e 655d db3d f22d 3bbd 2898 823d
00000220: b642 9c3d fa85 edbc 7ef7 92bd a904 fe3c
00000230: 2bb8 91bd 6582 82bd 586b f03d a431 933d
00000240: 1d70 033e 6c97 e5bd 85a3 acbd 1283 e8bc
00000250: 1030 b83d dd18 a13d 808a bdbc f550 b53d
00000260: 4865 64bd 89b3 9ebd 6d1f 57bd 4711 933d
00000270: 6b82 59bd e2c6 363c f09c 893d 8c65 20bd
00000280: 0cb7 cf3d 9563 c33b e3bc d7bd 8061 6e3d
00000290: 9c7b 133d ec52 4bbd b2a0 02bd d480 a03d
000002a0: 405c 1bbd 1d4c cabd f9a0 4b3b b6d6 aa3c
000002b0: fb6f 8abd 0ebe 403d 6d8d e2bb 9e7c b83d
000002c0: 62a8 8d3b e4c7 6cbd 097f 983c c220 e9bd
000002d0: 0b05 e33d 8135 e43d 6b8a dbbd 102d 723d
000002e0: 27cb 96bc c636 82bd 2846 ee3c 05f8 8fbd
000002f0: 1bf0 febc e4df bd3d 43ad d73d a8b4 a43c
0.021252217 -0.10313901 0.11011986 0.0917451 0.120371506 -0.08505818 -0.10830947 0.0098095
-0.038337093 -0.050635625 -0.026279384 -0.09828146 -0.06725 0.026881369 0.05797292 0.09817295
-0.046684384 -0.035248127 0.16270198 0.030767372 0.070166476 0.051168285 0.1173983 -0.042926647
-0.07286348 -0.038970627 0.023002874 -0.08099114 -0.042939942 0.038021833 -0.03049725 0.041153993
0.03441175 0.03466635 -0.05454422 0.08240369 0.013309521 -0.029323502 0.12236147 0.042785324
0.11796947 0.07160502 0.097916275 -0.064185634 -0.07515557 0.063543506 0.103478044 0.022287128
-0.04515746 0.027144296 0.14910513 0.030045057 0.0022543864 0.080669716 0.11289478 -0.079984516
-0.023477845 0.10550886 0.112591475 0.022152511 -0.015975567 -0.06935126 0.10044794 0.017467411
-0.06485664 0.033159472 -0.044752132 -0.028723016 -0.012347808 -0.00035337254 -0.09717947 0.074163824
0.013742117 0.01585329 0.07843947 -0.07426877 0.074819684 -0.100782216 0.08528027 0.07318964
-0.10245026 0.046872318 0.064579606 -0.07543889 0.10420016 -0.041853637 0.071897164 0.12928721
-0.09391655 -0.076653354 -0.056264713 -0.0852296 -0.045826707 -0.1102831 -0.0023798223 -0.04443523
0.0665236 0.09569173 0.1276063 0.034579556 0.13035993 0.010233541 -0.07942951 0.14114077
-0.08068958 0.052018534 0.077791244 -0.08375667 0.08851104 -0.07865754 0.057463113 0.13132285
-0.018239742 -0.015712736 -0.022700833 -0.027179055 -0.00023314884 0.14238878 -0.110328384 0.056854457
-0.044268847 -0.09558803 0.10535074 0.006192816 0.09272753 0.1333588 0.13636671 0.05619777
-0.045538433 -0.0057894303 0.13066669 0.056233294 0.13411292 0.10711173 -0.045698114 0.06376678
0.076299116 -0.028994549 -0.07176112 0.031008082 -0.071152054 -0.06372527 0.11739224 0.071872026
0.12835737 -0.11210522 -0.084296264 -0.028382812 0.08993542 0.078660704 -0.023137331 0.08853332
-0.05576065 -0.07749087 -0.052520204 0.0718103 -0.053102892 0.011155816 0.067193866 -0.039159343
0.10142335 0.005962799 -0.10534074 0.058198452 0.036006555 -0.049639627 -0.031891532 0.07837072
-0.037929773 -0.09877799 0.003107129 0.020854335 -0.0675964 0.04705625 -0.006913832 0.09008144
0.0043230513 -0.057807818 0.018615263 -0.11383201 0.11084946 0.111430176 -0.107197605 0.059125006
-0.018407417 -0.063581035 0.029086187 -0.07029728 -0.03112035 0.092712194 0.10531094 0.020105675

rnn.bias_hh_l0 f4 [192]
00000000: 41b6 54bd a673 aabb 28da 653d 250e b1bd
00000010: 6056 8d3d 4872 46bd 405b 093d 0f40 f2bc
00000020: 2e7c 8a3d ef4e 773c b21c 95bd b002 c3bd
00000030: babf 813d 71d5 e23c f77d e33d f3a2 cb3c
00000040: 3d23 d03c 5eb1 f93d b734 73bd ccb9 bf3c
00000050: 4500 87bc 9d7b 9cbd f874 893c e049 83bd
00000060: 00bc 44bd a436 b1bc 039e b5bd 8b30 f4bc
00000070: d920 ae3d 4cc8 3c3d 42a9 e53d 3c09 aa3c
00000080: 5341 603b 8a76 e13c 86f6 ab3d 57d8 1d3e
00000090: 27b5 86bc 9d3c cd3c 650b 813d e0ff 853d
000000a0: 8c1c 14bd 1124 f53c 62c9 b6bc 0981 29bd
000000b0: 04bb a2bd 9286 89bd 5c01 193e 64fe b53d
000000c0: 632c a8bd 4b4e ca3c dcf4 1a3e c8a8 90bd
000000d0: bb3c 8c3d 65a1 9fbd dbab 3f3d f87c 7d3c
000000e0: 62c1 e6ba 26e5 b4bc 5f66 bb3d e4d2 e0bd
000000f0: 313b 7b3d 5d78 cbbd 5752 143e ff84 fa3c
00000100: 169d ba3d 9057 be3d 0fc4 093d e6a2 a03d
00000110: 4adf 563d 92f3 8cbd 6113 cbbc 68cb 853d
00000120: 118a 05bd da60 9abd 658e c93d 1dc3 e53d
00000130: 050d 6e3d ca56 6a3d 5a18 b83d 18d3 16bd
00000140: 02b8 ddbd a147 153e 144b 9b3a a8de dbbd
00000150: f95a 023e f0ec 25bd 13f8 89bd b4d9 053e
00000160: 06cd bf3d 697e 86bd 2e5e b23d c34c 643c
00000170: 18b0 bfbd dacf 213d 0408 bfbd 9166 8ebc
00000180: c10b d33c 1cbb 81bc 0d8c cc3d b026 853c
00000190: fdba 2a3d fbfb d53d ddd1 c73d 654a 133e
000001a0: 791e a13d 11b3 82bd 36d4 eb3c 1dd9 bebd
000001b0: 443d 0bbe 1a15 84bd 75b5 bd3d edaf f43c
000001c0: 2817 b6bb 0399 2dbd 4b03 f5bc 0814 45bd
000001d0: 67bd 32bc 4221 86bd d049 d8bc 3b12 a83d
000001e0: 6df6 63bd f9a0 cfbd a503 14bd b489 35bb
000001f0: bd1a d13d dea8 b4bd 1a25 a8bd 6f41 ca3d
00000200: d5aa 9abc b815 8fbd 9ee3 2d3c 3826 3fbd
00000210: 26e1 053e c278 d4bd e475 2dbd c9a9 bcbd
00000220: 4815 c9bd 4f3f be3d 45c2 12bd b1b9 8b3d
00000230: 86e2 90bd 6a9b 6fbd 87ec 0cbd b225 40bd
00000240: a201 003d 767c 49bc 5419 893c afcc 493d
00000250: 4448 463b 9df7 e1bc cfce 8abd 24ca b4bc
00000260: 5166 0f3d ba7c bdbd bd2a 5d3d 0687 86bd
00000270: 6452 453b 9780 a53d e5b6 9c3d 4e47 cbbd
00000280: 63c9 5f3d 80e0 92bd 18b8 edbd b724 79bd
00000290: fb54 81bb ff55 cbbd 09ca e03d a1f9 5c3d
000002a0: 7a4a c43d d078 7dbc b984 4ebd 2668 ac3c
000002b0: dbd4 fabc d1e4 f13d 50af 46bc ed3d d83d
000002c0: a654 6fbc 5822 c0bd 5a10 f73d b035 253d
000002d0: b360 473d 6950 023e 257b e6bd 330e a63c
000002e0: 49c0 87bd bccd d2bb 8898 423d f585 9c3d
000002f0: ebab 9bbd d97a e4bc 3e90 3bbd 2a49 06be
-0.051931623 -0.0052017746 0.056116253 -0.08645276 0.0690124 -0.04844883 0.03353429 -0.029571561
0.06761967 0.015094503 -0.07280864 -0.09521997 0.06335397 0.027689667 0.1110801 0.024857974
0.025407428 0.12192033 -0.059376445 0.023404025 -0.01647962 -0.07640765 0.016779408 -0.06410575
-0.048030853 -0.0216325 -0.08868029 -0.029808303 0.08502359 0.046089455 0.11213924 0.020756356
0.0034218624 0.027522344 0.0839663 0.15414558 -0.016443802 0.025053317 0.063010015 0.06542945
-0.036160037 0.029924424 -0.022312824 -0.041382823 -0.07945827 -0.067151204 0.14941925 0.08886412
-0.08211591 0.024695536 0.15132469 -0.070634425 0.06847521 -0.077944554 0.046794754 0.015471689
-0.001760524 -0.022081923 0.09150385 -0.10977724 0.061335746 -0.09935067 0.14484535 0.030580996
0.09111993 0.09294045 0.03363424 0.078435704 0.05245904 -0.06882395 -0.024789514 0.06532937
-0.032602374 -0.07538004 0.09841613 0.112188555 0.058117885 0.057211675 0.0898902 -0.03682241
-0.10826112 0.14578106 0.0011847937 -0.10735828 0.12730016 -0.040509164 -0.067367695 0.13071328
0.09365277 -0.065670796 0.087093696 0.013934317 -0.09359759 0.039504863 -0.09327701 -0.017382892
0.02576244 -0.015836291 0.0998765 0.0162538 0.041682232 0.10448452 0.09756825 0.14383848
0.0786714 -0.063818105 0.028787713 -0.09318755 -0.1359759 -0.06449337 0.09263126 0.029869044
-0.0055569597 -0.04238225 -0.029908797 -0.048114806 -0.010909415 -0.06549312 -0.026402384 0.08206602
-0.05565493 -0.10138125 -0.03613629 -0.0027700486 0.10210178 -0.08821271 -0.082102016 0.09875762
-0.018880287 -0.069865644 0.01061335 -0.046667308 0.13074169 -0.10374595 -0.042348757 -0.092120714
-0.09818512 0.09289419 -0.0358298 0.06822527 -0.07074456 -0.058497824 -0.034405258 -0.04691095
0.031251557 -0.01229774 0.01673571 0.049267467 0.0030255476 -0.027583892 -0.06777727 -0.022069044
0.035009686 -0.09252305 0.053995837 -0.065687224 0.0030108923 0.08081167 0.07652072 -0.0992571
0.054635417 -0.07171726 -0.11607379 -0.06082603 -0.003946898 -0.09928512 0.10976035 0.053949002
0.09584518 -0.0154706985 -0.050419543 0.021045756 -0.030619076 0.118112214 -0.012126759 0.105586864
-0.014607584 -0.093815506 0.12063666 0.040334404 0.048676204 0.12725987 -0.11253957 0.020270443
-0.06628472 -0.006433217 0.047508746 0.07642738 -0.0760115 -0.02789061 -0.045791857 -0.13113847

rnn.weight_ih_l0_reverse f4 [192, 512]
00000000: cdc7 11be 57a3 eebd ab71 cabd ab86 043d
00000010: 862c 9c3d a3d2 813d 9401 0abc 6dbb be3b
00000020: 8a17 d83d d8d5 093e 20c9 83bd 467a 41bd
00000030: d949 3abd 7558 80bd ccd5 b33d 45d7 3a3d
00000040: ee52 ecbc 93a4 133c d29d c43c 8245 b5bd
00000050: 952e 8dbd a345 6a3d 6ac8 463c 5da5 9ebd
00000060: 2556 12be c5fc 4ebd 9337 89bc c842 303d
00000070: faa0 67bd d91f 223d 34f5 63bd 5515 143d
00000080: aeae 4c3c 8322 a63c 3bb3 d1bd 9a6c 2a3e
00000090: f9c7 a7bb 91f1 c83c bebb 96bc 4d6c 6b3d
000000a0: 1f6b bebd 08cb f93d 00f0 18bd 7a5d 8a3d
000000b0: 58f1 f03d 09b2 60ba d413 b0bd 8e67 d53d
000000c0: 1ddd 4d3c cf7c 15bd 3d5e 8abb 3810 8fbd
000000d0: 4ec0 d7bd bee6 3bbd 0ba0 d7bc 3816 8f3c
000000e0: 40f1 60bc beff c23d a234 dcbd 3f67 8f3d
000000f0: b949 e33d c2d5 64bd a665 eb3d f0d4 8bbd
00000100: a80d 10bd 7c13 113e 4498 b73d 9026 c3bd
00000110: 448e d63c 90c6 dc3d ca8a 733d e4f0 043e
00000120: 65b7 e3bc c0d6 813d 6cbe bebd ebfd adbd
00000130: c630 ce3d f98c d2bd 728f ffbd 4bb7 75bd
00000140: ae86 89bd 3c93 cdbb fbf1 80bd f3c5 27bd
00000150: d104 d1bd da5a 62bd fb77 b5bd 9d76 c2bd
00000160: ad5a 3c3d da45 11bd 60df 56bd 6279 1ebd
00000170: feb1 973d 65d4 31bd 7dfa 85bd be30 943c
00000180: e3ad 113c 3d8e a6bd 667c b23d 4a01 f73d
00000190: c623 1a3d 7e6a 7b3d 221a 0ebe 3eff 1e3d
000001a0: 713f d03b a1e7 bcbd e746 f7bd 8312 293d
000001b0: 6b5c 2ebd d705 abbd e2ba b7bd c52d 16bc
000001c0: b70a 903d 654f cc3b 5329 d23d df38 ba3d
000001d0: d094 e6bd c583 473d 5d3e b2bc 4d5a 18be
000001e0: b24c 0b3c d624 ca3d 82ec 863c cc9e 943b
000001f0: f36e 533d 6205 58bd 26d0 84bd da7d da3d
00000200: fc2e f93d d846 783d 4e27 f03d 1a9a bbbd
00000210: 4867 c43c b812 5bbd b4b6 723d f80f 5e3d
00000220: 20d3 923b 0075 f1ba c087 d63d dca7 143d
00000230: 8827 bbbd d8ee 59bd e8af 893d f099 1f3d
00000240: a24a 18be c01d 09be afd7 a7bd 2ef5 e5bc
00000250: b526 353c a074 8abd beb0 6bbd 5b45 8fbd
00000260: 81cf acbb b47d 2ebe 0b4b bcbd ac83 aabd
00000270: 1f24 79bd f1aa 91bd a4e1 bcbd eb2a 73bd
00000280: 8644 733d 5a8a 21be 05e9 b8bd e310 7c3b
00000290: d38f 23be f784 00be d6f7 a4bd 16de e9bc
000002a0: aa75 803d 51f4 133d 5cf5 763d 0201 1bbd
000002b0: 5caa c0bd d6be d9bd fa2c b93d 3855 f3bc
000002c0: 3202 e63d 9c90 4e3d 8c76 c1bd 2f1e 20bb
000002d0: 8096 3c3b 62a3 a5bd 74d3 38bd a2bc ea3d
000002e0: c6ab 9fbd fa79 d0bd f691 843d 5641 f33d
000002f0: e64d fa3d 06e2 e9bd 580a 073d 542d 1f3d
00000300: 1a85 27bd a7e5 033e 01bc 843d d9e5 55bd
00000310: 3998 2d3d a265 f93d f74c a13d 432d c4bb
00000320: 0711 12bd 9b5b 98bd 41c3 333d df7b d03d
00000330: cd04 73bc 6e26 c93d 87f5 ff3d e60f cdbd
00000340: 8fcc 4d3d 664e 223e 48a6 dd3d 3990 91bd
00000350: a80b fa3d 9508 5fbd 0276 2ebd 1b74 5d3d
00000360: bd5a 8c3d 30d8 8cba b96c 053e 2c9a 953d
00000370: daaa 8f3d d945 d63d 17d0 89bd 90b5 583c
00000380: 0c4b 3bbe 3e88 c8bd 47ec 0f3d 4f5e 17bd
00000390: 100b b43d 31b3 f4bc b027 1dbd f61b a1bd
000003a0: 5541 ccbd d7d5 78b7 7edd 893d 0533 cfbd
000003b0: a3bb b53d 6910 8e3c fae5 90bd 680d 8fbc
000003c0: 3a8a 7b3d e891 73bb c456 313e 80b1 b23c
000003d0: d4d8 65bd b7ad 98bd a5de d7bc 2632 d4bd
000003e0: a110 083d 013c 76bb 3895 59bd 4a96 9ebd
000003f0: a4cf 633d eb4d 97bb 4086 2f3d a448 403d
-0.14236374 -0.11652248 -0.09884962 0.032354992 0.0762568 0.06339004 -0.008423228 0.0058206827
0.10551365 0.13460481 -0.06434846 -0.04723575 -0.045480583 -0.06266872 0.08781013 0.045615453
-0.028848138 0.0090114055 0.024001036 -0.08851148 -0.068936504 0.057195317 0.012132743 -0.07746384
-0.14290674 -0.05053403 -0.016750133 0.043032438 -0.056550004 0.039581154 -0.055653766 0.036153156
0.012492819 0.020280128 -0.102392636 0.1664299 -0.005120274 0.02452925 -0.01840007 0.05747633
-0.092977755 0.12196928 -0.037338257 0.067561105 0.11764783 -0.0008571451 -0.08597532 0.10420142
0.012564925 -0.03649598 -0.00422266 -0.06985515 -0.10534726 -0.04587435 -0.026321432 0.01746665
-0.0137293935 0.09521435 -0.107522264 0.070021145 0.11098046 -0.055867918 0.11493997 -0.06827724
-0.035169274 0.14167589 0.08964589 -0.095288396 0.026190884 0.1078006 0.05945853 0.12982517
-0.02779741 0.063397884 -0.09313664 -0.08495697 0.100678965 -0.10280795 -0.12478532 -0.059989255
-0.06715141 -0.006273655 -0.06296154 -0.040960263 -0.10205997 -0.055262424 -0.08860775 -0.0949528
0.045984913 -0.035467006 -0.05245912 -0.03868998 0.07406996 -0.043415446 -0.065419175 0.018089648
0.0088915555 -0.081325985 0.08715133 0.12060793 0.037631772 0.061380856 -0.13877156 0.038817637
0.006355219 -0.09223867 -0.120740704 0.04127742 -0.042568605 -0.08350723 -0.08971192 -0.009166186
0.07033294 0.0062350505 0.10261788 0.090928786 -0.112588525 0.04870965 -0.021758253 -0.14878197
0.008502172 0.09870307 0.016470198 0.0045355316 0.05161948 -0.05273951 -0.06485014 0.106685355
0.12167165 0.060614437 0.11726247 -0.09160252 0.02397503 -0.05348465 0.05925627 0.054214448
0.0044807345 -0.001842171 0.10475111 0.036292896 -0.09138399 -0.053206295 0.067230046 0.038965166
-0.1487222 -0.13390255 -0.08195435 -0.028071012 0.011056592 -0.06760526 -0.0575416 -0.069956504
-0.00527376 -0.1704014 -0.09194001 -0.08325896 -0.060825463 -0.071126826 -0.09222725 -0.0593671
0.05939152 -0.15775433 -0.0902882 0.0038462214 -0.15972833 -0.12550722 -0.080550835 -0.028548282
0.06272443 0.03612167 0.060292587 -0.037842758 -0.094074935 -0.10632102 0.09041782 -0.029703721
0.112308875 0.05043088 -0.09446439 -0.0024432053 0.0028776228 -0.080878034 -0.045123532 0.1146176
-0.07796435 -0.10179515 0.06473152 0.11877696 0.12221889 -0.11420064 0.03296885 0.038861588
-0.04089842 0.12880574 0.064811714 -0.052221153 0.0423815 0.12177588 0.07876008 -0.005986841
-0.03566077 -0.07439347 0.04388738 0.101798765 -0.014832688 0.09821783 0.124980025 -0.10012798
0.05024391 0.15850219 0.10822731 -0.071075864 0.122092545 -0.054451544 -0.04259301 0.054065805
0.068532445 -0.0010745581 0.13029756 0.073047966 0.07015009 0.10462541 -0.06729143 0.013226882
-0.18290347 -0.09791611 0.03513744 -0.036955174 0.087911725 -0.029870601 -0.038367927 -0.07866661
-0.099733986 -1.483174e-05 0.067316994 -0.10117153 0.088736795 0.01734181 -0.070751145 -0.017462447
0.06141112 -0.0037165824 0.17318255 0.021813154 -0.056114987 -0.074550085 -0.026351282 -0.103611276
0.033218984 -0.0037572386 -0.05312082 -0.07743509 0.055617943 -0.004617443 0.04285264 0.046944275

rnn.weight_hh_l0_reverse f4 [192, 64]
00000000: 60c6 fb3d 00e6 c23c b20b ecbd ba76 d4bd
00000010: 803e 623c f8b9 a4bd 1821 bb3c d0d0 493c
00000020: d82a 643d 285b c43c 2058 9a3b deb3 c6bd
00000030: ac62 7d3d e04f 2cbd 4652 cabd b866 b33d
00000040: 1cc8 2a3d 9cb3 02bd ceab d0bd 5c01 66bd
00000050: 4c83 39bd fc07 383d 7214 a83d d0e5 4c3d
00000060: 8690 ca3d 9869 31bd 0465 293d 08fc 683d
00000070: 58ee d5bd 8a8c bb3d 1047 383c a057 1bbd
00000080: 30eb 373c e889 de3c 288b e03c c4de ff3d
00000090: ded0 a4bd bc9e df3d b839 48bd 9095 323d
000000a0: 5065 023d a8d3 f4bd 70f7 ba3c da5c 8f3d
000000b0: 86ba be3d c086 233c 608b 5b3c 4009 5bbb
000000c0: b057 71bd 9062 e7bc 8c70 aa3d 3046 69bd
000000d0: d64b 9c3d 801c 1e3d c856 17bd 6474 fbbd
000000e0: fc22 333d e00b 633c b0cc 9e3d d844 893c
000000f0: 0c98 adbd 0a2b afbd 902c c43d 18b4 6f3d
00000100: 28a2 f13c a003 2cbd 54b9 93bd b2b7 fe3d
00000110: e836 f33c 2873 2b3d 02fe 9f3d d40e d9bd
00000120: 4cc7 e4bd f8fc 6d3d c033 2c3c 42c4 e53d
00000130: f81b 73bd 0277 f2bd 8620 95bd 1adb 993d
00000140: b61e e5bd b06a 3c3c 72ca ad3d 8067 7ebc
00000150: f47e 6a3d 2609 f2bd 7044 f1bd 48a4 7abd
00000160: 608b 25bd 024c a53d 20a5 4d3d 5800 9ebc
00000170: 8c7a 713d 0cb3 aabd dcda 033d 0009 27bd
00000180: f876 e5bd 5079 dcbc 7012 643c c00f 863c
00000190: 44f1 febd c822 db3d 588c 3ebd 5095 963d
000001a0: 289f d73d d830 233d f2bb cd3d 6a1c bb3d
000001b0: a0b7 dabb 60c8 16bc 84c4 b7bd 3466 ca3d
000001c0: bec6 8e3d 5a8b 8bbd 7092 8f3c a0c5 c0bd
000001d0: 2cc5 bbbd 4250 80bd 4c6e 4fbd 0c95 8c3d
000001e0: 0ef8 8e3d 9433 aa3d b8e1 ea3d 187d 0b3d
000001f0: d82a 9d3c a4f8 dc3d 78ea 023d 488e 623d
00000200: b0e6 023d c084 83bc 8877 e33c 90a0 e7bd
00000210: 1419 3f3d ac63 b03d e851 963d f8b9 2f3d
00000220: 507c db3d 143d ab3d 88dc 00bd 3883 3f3d
00000230: 680a fe3d 9083 033d 96e2 873d 8075 75bd
00000240: 085e a6bc 1066 893d 28eb e1bc 88b2 7d3d
00000250: 245d 06bd 9031 613c c0d1 dbbb c454 ffbd
00000260: 7058 313c ac8c 82bd 7ebd a9bd f664 e43d
00000270: 0a9e e13d d89a 2d3d ced5 aebd 3023 193c
00000280: 6c54 cebd 82c6 9f3d 546e febd 00c4 87bb
00000290: 70d8 1ebc 14ad 493d 00a7 fd3a 2094 e23d
000002a0: 645a 743d c02b 81bd 6094 093c b09c 0cbc
000002b0: e06a 113d 48f1 8abc 00be b239 5077 afbd
000002c0: 9494 bc3d c8cb a8bd a862 febd e048 8cbc
000002d0: cc80 91bd 0c93 74bd e491 4a3d 3c0f 88bd
000002e0: 6cd6 cdbd 6011 0d3c 3072 a43d 002d efbd
000002f0: b858 e73c bc68 903d 7c14 9dbd 1c8e af3d
00000300: 103a 0fbd 0ca5 99bd d82f d4bd e0eb 4c3c
00000310: b0b5 583d ae7d dc3d 80ef ad3d 283a e7bc
00000320: 7820 81bc 640d d43d 68ca eb3c 9025 5abc
00000330: 62e9 84bd 201f f0bc e0ec 41bc f016 fd3d
00000340: 4019 1dbb b8d3 da3c f8ec adbd 78f1 81bd
00000350: 5ce1 44bd ceff 87bd 3059 16bd f824 363d
00000360: 7417 13bd 8aa9 9bbd 5ac6 ee3d e0c8 fabd
00000370: 122b a33d 8061 c0bd 88ee e6bc ce93 a6bd
00000380: b44f 74bd 2014 143d a070 b13b e2ba fbbd
00000390: 7061 72bd 9e91 f93d 60ed f53c 404e 713c
000003a0: a077 4fbc faee aabd c0e7 d3bd a42e 0d3d
000003b0: 7aac e33d 28a4 ba3c f85d 3fbd c02b 6f3c
000003c0: 0aad e23d 2c55 b53d be1d 81bd 3022 933c
000003d0: b613 dabd 3cd5 67bd 2a94 803d cab9 afbd
000003e0: de76 823d b6c2 95bd 000f 80bc 389d a0bd
000003f0: 0036 3b3d 5085 51bc 6479 44bd 50c3 9fbd
0.122936964 0.023791313 -0.11525668 -0.10374208 0.0138088465 -0.08043283 0.022842929 0.012317851
0.05570492 0.023969248 0.0047102123 -0.09702276 0.06186168 -0.042068362 -0.09878974 0.087598264
0.041694745 -0.03190957 -0.10189019 -0.05615364 -0.04529123 0.04492949 0.08207025 0.050023854
0.09890847 -0.043313593 0.0413561 0.05688098 -0.10445851 0.09157665 0.011247411 -0.037925363
0.011225507 0.027165368 0.027410105 0.12493661 -0.08047651 0.10918948 -0.04888317 0.043599665
0.0318349 -0.11954433 0.022823066 0.07000132 0.0931292 0.009980857 0.013399929 -0.0033422261
-0.058921516 -0.02824524 0.08322248 -0.0569517 0.07631652 0.0386014 -0.036947995 -0.12278059
0.043734536 0.013857812 0.07753885 0.01675646 -0.08476266 -0.08553131 0.09578812 0.05852136
0.029496267 -0.041995645 -0.07213083 0.12437381 0.029689267 0.04185787 0.0781212 -0.10598531
-0.11170825 0.058102578 0.010510385 0.11219074 -0.059352845 -0.11839105 -0.07281594 0.075124934
-0.11187498 0.011500046 0.08485879 -0.015527606 0.05724998 -0.11818151 -0.117806315 -0.061191827
-0.04041612 0.08071138 0.050206304 -0.019287273 0.05895476 -0.08334932 0.032191142 -0.040780067
-0.11204332 -0.026913315 0.0139204115 0.016364932 -0.124483615 0.10699993 -0.04652056 0.07352698
0.105284035 0.039841503 0.10045613 0.09136279 -0.006674722 -0.009203047 -0.08973029 0.09882775
0.06971501 -0.068136886 0.017525882 -0.09412694 -0.09168467 -0.06265308 -0.050642297 0.06864366
0.069809064 0.08310619 0.11468834 0.034054846 0.019185469 0.10789612 0.031961888 0.05531147
0.031958282 -0.016054511 0.027766958 -0.11309922 0.046654776 0.08612761 0.07339841 0.042901963
0.1071707 0.08361259 -0.031460315 0.046756 0.124043286 0.03210789 0.06635015 -0.05992651
-0.02030851 0.0670892 -0.027577952 0.06193784 -0.03280367 0.013744727 -0.0067083538 -0.1246734
0.010824308 -0.06374487 -0.08288096 0.11152069 0.11016472 0.042384 -0.08536874 0.009346768
-0.10074696 0.07801534 -0.12423387 -0.004143238 -0.009695157 0.049237326 0.0019352138 0.11063409
0.059656516 -0.06307173 0.008397192 -0.008582279 0.035502315 -0.016960755 0.00034092367 -0.08567679
0.092080265 -0.08241993 -0.12421161 -0.017124593 -0.07104644 -0.059710547 0.04945554 -0.06643531
-0.10050663 0.0086101 0.08029592 -0.11678505 0.028240547 0.070512265 -0.07669923 0.08572027
-0.034967482 -0.07502183 -0.10360688 0.012507409 0.052907646 0.10766159 0.084929466 -0.028225973
-0.015762553 0.103541166 0.028783038 -0.01331462 -0.06489827 -0.029311717 -0.011836261 0.123578906
-0.002397135 0.026712283 -0.08492464 -0.06344885 -0.048066482 -0.06640588 -0.03670615 0.04446885
-0.03591104 -0.076006964 0.11658926 -0.12245345 0.079671994 -0.09393597 -0.028189912 -0.0813366
-0.059646323 0.036152005 0.0054150373 -0.122915044 -0.059174955 0.121859774 0.030020416 0.014728129
-0.012662798 -0.083463624 -0.10346937 0.034468308 0.11116882 0.022783354 -0.046720475 0.014597833
0.11068161 0.08854136 -0.06304501 0.017960638 -0.10648291 -0.05659984 0.0627826 -0.08580358
0.06370328 -0.07312529 -0.015632153 -0.07842487 0.045705795 -0.012788132 -0.04796733 -0.07800925
